lab1/ece697ls/models/torch.model (torch, 642511 bytes, 8 tensors)

conv1.weight f4 [32, 3, 5, 5]
-0.08731089 0.032464404 0.014214454 -0.040951926 0.114257306 0.051447768 -0.039457556 0.07287195
-0.008061294 0.05095358 -0.08232938 -0.0067090746 -0.019672973 -0.0376984 0.059622623 0.090133585
-0.0813755 -0.027121106 -0.1104749 -0.01772861 -0.060836248 -0.07558125 -0.06417542 0.04469755
-0.09589268 -0.014153184 -0.0219753 0.057260845 -0.039266855 0.051023804 0.02789338 -0.09950934
0.0054866057 0.02610933 0.07141791 -0.0026567574 0.05181786 0.022227637 -0.09995204 -0.032946058
-0.005226931 -0.04406709 0.08369363 0.08782193 -0.0076046614 0.0876931 0.05599761 0.061182026
0.10280159 0.03929949 0.01713733 0.032511946 -0.022577263 -0.09566106 -0.07976876 -0.047665846
0.06006905 0.051414017 -0.13377918 0.02489952 0.013145982 -0.090284936 0.05324213 0.07571106
0.07776979 -0.015074857 -0.059744053 -0.07869878 -0.037737727 0.06528468 0.036254007 -0.08271541
0.02513215 -0.004621452 0.013630403 0.06927908 0.03947038 0.055737715 -0.0053504854 0.043524116
0.086011656 -0.023436766 0.01974789 -0.014559784 -0.03902429 -0.08080359 -0.05980636 0.029063586
0.01635865 0.07154936 -0.062802024 0.10162989 -0.083895795 0.00890331 -0.07576989 -0.072703995
-0.07797096 0.092229985 -0.017376836 0.117571615 0.019358858 -0.042538565 0.075447395 -0.018217586
0.01662109 -0.06881652 -0.064798474 0.030632468 0.021699924 0.04748077 -0.023457719 -0.06272991
0.09113965 -0.09129502 0.06685797 -0.075799316 0.020707056 0.06767892 -0.023488352 -0.015421236
-0.027220946 -0.06349633 0.09764277 -0.025197007 -0.07572511 0.08483397 -0.067138165 -0.015981786
-0.06371268 -0.046641216 0.013892203 -0.059855442 0.075894445 0.051206056 0.05557008 0.089124836
-0.03182902 -0.03815422 -0.0381651 -0.04436272 -0.079857394 -0.0055468013 -0.10570939 -0.047423583
-0.030586815 -0.07168449 0.10113958 0.01725787 0.04139228 -0.09442073 0.027336312 0.043203328
0.021049287 0.04971584 -0.086326204 0.0154606495 -0.08108236 0.12409757 -0.008123758 -0.05961619
0.07092547 0.055402275 0.04835261 0.09670095 0.0046976004 -0.008234736 0.07453187 -0.11545329
-0.0040115174 0.081175104 -0.042253554 -0.03845966 0.060589544 -0.058304895 0.08709274 -0.039462723
-0.08437129 0.026300054 -0.112096645 -0.08597081 0.025984496 0.08528337 -0.075228184 0.006958277
0.047452122 0.0038627407 -0.093657404 -0.012399932 0.021185435 0.0718057 -0.053640954 -0.050935455
0.07237113 -0.08124687 -0.123311564 -0.0418603 0.02976654 -0.09354874 -0.010087929 0.059766613
-0.019078376 -0.075770766 -0.08860877 0.089328684 0.0742864 -0.009475862 0.05349608 0.011760553
0.021101952 -0.07380272 -0.04510733 0.019976987 0.08453602 0.06655867 0.06782911 0.025678992
0.048225645 -0.024723217 0.016860466 -0.022837324 0.09059005 -0.01363098 0.089794524 0.05653338
-0.10613567 -0.12042195 0.021339098 -0.020783091 0.026493933 0.0068309507 -0.045499388 -0.07986004
-0.017019674 0.05388045 0.06458514 -0.07400687 -0.088857085 0.072916955 0.071699545 0.020020755
0.10395045 -0.0103634605 0.10195711 0.0521712 0.040745363 -0.102509856 -0.032840025 -0.0790835
0.073299214 0.08589225 0.004781391 -0.024270331 0.080007486 -0.11425623 0.060763706 0.014804591
00000000: 0dd0 b2bd 65f9 043d bee3 683c 35bd 27bd
00000010: bcff e93d e5ba 523d 3f9e 21bd e43d 953d
00000020: 8513 04bc b3b4 503d 4e9c a8bd ccd7 dbbb
00000030: 3729 a1bc a369 1abd da36 743d f597 b83d
00000040: 33a8 a6bd 152d debc aa40 e2bd 973b 91bc
00000050: 6e2f 79bd 58ca 9abd 676e 83bd c714 373d
00000060: 6263 c4bd c2e2 67bc 8b05 b4bc 598a 6a3d
00000070: 48d6 20bd 56fe 503d a880 e43c 8ecb cbbd
00000080: fcc8 b33b 3ce3 d53c 8e43 923d fe1c 2ebb
00000090: f73e 543d bc16 b63c a8b3 ccbd 72f2 06bd
000000a0: ad46 abbb b17f 34bd 9167 ab3d fcdb b33d
000000b0: 8630 f9bb 7198 b33d c05d 653d 019a 7a3d
000000c0: a489 d23d 81f8 203d 9663 8c3c 3f2b 053d
000000d0: f4f3 b8bc f2e9 c3bd ce5d a3bd 433d 43bd
000000e0: f70a 763d 8197 523d 69fd 08be 14fa cb3c
000000f0: 3f62 573c 4fe7 b8bd 6b14 5a3d 660e 9b3d
00000100: c545 9f3d 88fc 76bc 2eb6 74bd d32c a1bd
00000110: e092 1abd f9b3 853d 157f 143d b266 a9bd
00000120: f0e1 cd3c 8d6f 97bb 0e52 5f3c 31e2 8d3d
00000130: b1ab 213d 3b4d 643d 2053 afbb 5846 323d
00000140: e126 b03d 76fe bfbc 54c6 a13c 298c 6ebc
00000150: efd7 1fbd 5a7c a5bd 84f7 74bd c216 ee3c
00000160: 9302 863c 7988 923d 599e 80bd 5523 d03d
00000170: 8fd1 abbd 30df 113c 3e2d 9bbd d5e5 94bd
00000180: 3daf 9fbd 13e3 bc3d de59 8ebc 63c9 f03d
00000190: 7896 9e3c eb3c 2ebd 2a84 9a3d 0c3d 95bc
000001a0: f428 883c adef 8cbd 10b5 84bd f1f0 fa3c
000001b0: 0ac4 b13c 327b 423d 672a c0bc 8a78 80bd
000001c0: 6da7 ba3d e2f8 babd d5ec 883d ac3c 9bbd
000001d0: d8a1 a93c 3f9b 8a3d a56a c0bc 5aa9 7cbc
000001e0: 76fe debc 5d0a 82bd eff8 c73d f469 cebc
000001f0: c415 9bbd 6fbd ad3d bc7f 89bd 3cec 82bc
00000200: cb7b 82bd dc0a 3fbd 1f9c 633c fb2a 75bd
00000210: 8c6e 9b3d 71bd 513d 749d 633d 1587 b63d
00000220: 255f 02bd 9947 1cbd 0253 1cbd afb5 35bd
00000230: 468c a3bd f1c1 b5bb 2a7e d8bd 3b3f 42bd
00000240: 3391 fabc 51cf 92bd 4522 cf3d 6060 8d3c
00000250: f48a 293d a85f c1bd 67f0 df3c f9f5 303d
00000260: 8e6f ac3c d6a2 4b3d cbcb b0bd aa4e 7d3c
00000270: 820e a6bd de26 fe3d 8319 05bc 1b30 74bd
00000280: 5f41 913d 7fed 623d 630d 463d 260b c63d
00000290: 54ee 993b fcea 06bc 2aa4 983d c672 ecbd
000002a0: 0c73 83bb 223f a63d 1012 2dbd e087 1dbd
000002b0: be2c 783d 1dd1 6ebd ae5d b23d aaa3 21bd
000002c0: dbca acbd 3673 d73c ed92 e5bd 7711 b0bd
000002d0: 70dd d43c 0ca9 ae3d 3c11 9abd 4202 e43b
000002e0: 285d 423d 0926 7d3b 74cf bfbd 1629 4bbc
000002f0: 148d ad3c de0e 933d 9eb6 5bbd b2a1 50bd
00000300: 5137 943d c264 a6bd c68a fcbd b575 2bbd
00000310: f5d8 f33c 7b96 bfbd d747 25bc d6cd 743d
00000320: 414a 9cbc b42d 9bbd 8478 b5bd f5f1 b63d
00000330: 7823 983d a540 1bbc b51e 5b3d 56af 403c
00000340: 00de ac3c e125 97bd 77c2 38bd c7a6 a33c
00000350: 3921 ad3d e94f 883d fde9 8a3d c05c d23c
00000360: 4188 453d 5888 cabc f61e 8a3c 5715 bbbc
00000370: 4787 b93d 7954 5fbc 31e6 b73d 8c8f 673d
00000380: a85d d9bd c99f f6bd 55cf ae3c 4d41 aabc
00000390: ce09 d93c 2bd6 df3b 915d 3abd a98d a3bd
000003a0: d86c 8bbc bfb1 5c3d 3745 843d ea90 97bd
000003b0: b4fa b5bd 7c55 953d 36d7 923d 9102 a43c
000003c0: f9e3 d43d 81cb 29bc e4ce d03d 78b1 553d
000003d0: 9ce4 263d b0f0 d1bd 4383 06bd 88f6 a1bd
000003e0: e61d 963d 47e8 af3d 37ad 9c3b 93d2 c6bc
000003f0: f7da a33d 2cff e9bd 5de3 783d f58e 723c

conv1.bias f4 [32]
-0.09832665 -0.07347049 0.005540137 -0.13806173 -0.0791648 -0.079634435 0.04678842 0.11678341
0.04997934 0.12018134 -0.07158388 -0.012856118 0.057051253 0.089397445 0.012095335 -0.015681608
0.041804172 -0.07902187 0.02647568 -0.03840325 0.07620855 -0.03304269 -0.09529179 -0.013823731
0.038723588 -0.12518695 0.07560211 -0.039870773 -0.03328498 0.00553062 -0.11736042 0.021015896
00000000: 7c5f c9bd b277 96bd 0a8a b53b 0e60 0dbe
00000010: 2821 a2bd 6117 a3bd 37a5 3f3d 242c ef3d
00000020: 23b7 4c3d a221 f63d 929a 92bd 78a2 52bc
00000030: 93ae 693d 0216 b73d 832b 463c b776 80bc
00000040: da3a 2b3d 38d6 a1bd 86e3 d83c ba4c 1dbd
00000050: 3a13 9c3d c657 07bd 5828 c3bd ee7c 62bc
00000060: a09c 1e3d 0231 00be 47d5 9a3d 894f 23bd
00000070: d555 08bd 343a b53b a95a f0bd 8729 ac3c

conv2.weight f4 [32, 32, 3, 3]
0.041908078 0.016011156 -0.014283762 0.009365383 0.008629755 0.038008127 0.003553558 0.003440692
-0.027531337 -0.040423587 -0.019017836 0.024145832 -0.03200241 0.03452762 -0.07060527 -0.012897241
-0.012479284 0.022937205 0.022773357 0.008771808 -0.019740779 -0.023670513 -0.060495596 0.010117051
0.022739548 -0.040605854 -0.032100994 -0.064125106 -0.006566124 -0.025978418 0.0043415218 0.013044132
0.0035612155 -0.0065626632 -0.01183262 -0.018368801 0.010684104 -0.065813504 0.0381142 -0.07070568
0.024981959 0.041686937 -0.014689654 -0.03506527 0.054468237 0.03153906 -0.04823133 -0.032197125
0.0146295065 0.025056005 0.044085804 -0.03735368 -0.016735403 0.0625224 0.01861344 -0.02304843
-0.03336226 -0.049907457 0.031527232 0.048615 -0.050901964 -0.023094323 -0.053853333 -0.031076754
0.028779538 -0.040935386 0.020685297 -0.026106523 0.01630574 0.05419965 -0.031981718 -0.0016797995
-0.037034117 -0.006929961 0.03419717 0.043030575 0.03286795 -0.04683867 -0.058753368 -0.028291427
-0.054154735 0.0055656396 -0.021886468 0.0578543 -0.014282304 0.05740888 0.0730176 0.035329334
0.044512 0.027649542 -0.039914943 -0.010198206 -0.038845576 -0.030221079 -0.006414055 -0.033880893
-0.04206887 0.040869042 -0.032645 0.013491437 0.04648588 -0.021565428 -0.01051187 0.015811052
0.021655723 -0.030495841 0.0004728798 0.024590919 -0.018751245 0.02399037 -0.033312425 0.0029673562
-0.01744737 0.021453941 -0.033150926 0.026471982 0.023079438 -0.027753219 -0.04883212 0.011797049
0.027051918 0.032910705 -0.007185859 -0.040813893 -0.017949348 0.023239529 0.00641348 -0.04438415
0.013433919 -0.06682911 -0.015450951 -0.033485647 -0.017458314 0.020627715 0.045729127 -0.0058866628
-0.011310533 0.044450212 -0.0015394295 0.021114003 -0.031132197 -0.041815586 0.0239005 -0.011093918
0.016946161 -0.019220065 0.0050535784 0.035128392 -0.030799555 0.03064549 -0.026433788 0.04336843
0.007878989 0.049578685 1.6234626e-06 -0.023533424 0.05621271 0.030052377 0.022743974 -0.031832352
0.0042195725 0.024589507 0.024253527 0.040804237 0.026996521 0.0018834034 0.0025365588 -0.054677878
-0.009168218 0.019417772 -0.030904504 0.03764088 -0.01029138 -0.012753067 0.04639778 -0.004798309
-0.045688152 0.027591582 -0.018466156 -0.05191486 -0.04277423 -0.056918927 -0.022637028 0.019370236
-0.05026563 -0.015507403 0.041770957 0.0143550215 0.004399986 -0.021686232 0.018979974 0.023301037
0.009779923 0.048324097 -0.052544508 0.025658485 0.0043033212 0.013426232 -0.050817557 0.034748033
-0.05089534 0.0061849207 -0.04710661 -0.029493796 -0.056861784 0.027405832 0.027256906 -0.022853147
-0.003602568 0.020024113 0.01712898 0.035926614 0.01425125 -0.016639173 0.05149731 0.04106084
0.012795817 -0.012466714 -0.022490373 0.047032505 -0.027990095 -0.050292585 0.045103967 0.0033657737
-0.021944629 -0.014514488 -0.043137927 0.027285986 -0.056392565 -0.049050014 -0.043725498 -0.042874437
-0.029546782 -0.038925443 0.034682836 -0.05065805 -0.0022913234 0.038297575 -0.045602996 -0.03930994
-0.019296337 -0.01754943 -0.032016 -0.04912199 -0.0447545 -0.038598858 0.030844066 0.03960456
-0.012362369 0.02390939 0.031461067 0.028451502 -0.024592215 -0.029290183 -0.026030356 0.0019865707
00000000: cea7 2b3d d429 833c 7106 6abc 4371 193c
00000010: d163 0d3c 69ae 1b3d cfe2 683b 3c7d 613b
00000020: 6689 e1bc 3493 25bd 4bcb 9bbc 7bcd c53c
00000030: f614 03bd d56c 0d3d 7f99 90bd f34e 53bc
00000040: e975 4cbc cee6 bb3c 318f ba3c a1b7 0f3c
00000050: 6ab7 a1bc aae8 c1bc 3bca 77bd fdc1 253c
00000060: 4a48 ba3c 5352 26bd 557c 03bd 0654 83bd
00000070: a428 d7bb b1d0 d4bc 5343 8e3b 0eb7 553c
00000080: 4863 693b 9c0b d7bb 9bdd 41bc 2b7a 96bc
00000090: 610c 2f3c 3bc9 86bd a31d 1c3d 24ce 90bd
000000a0: f7a6 cc3c ecbf 2a3d e0ac 70bc 9aa0 0fbd
000000b0: 161a 5f3d 1a2f 013d 378e 45bd 22e1 03bd
000000c0: 99b0 6f3c 4042 cd3c 5193 343d 2c00 19bd
000000d0: af18 89bc be0b 803d 377b 983c 10d0 bcbc
000000e0: dda6 08bd c36b 4cbd b322 013d 8620 473d
000000f0: 947e 50bd 4e30 bdbc 5095 5cbd ad94 febc
00000100: 11c3 eb3c ddab 27bd 3674 a93c 59dd d5bc
00000110: 9e93 853c 7400 5e3d 43ff 02bd b82c dcba
00000120: 16b1 17bd ba14 e3bb 5512 0c3d d440 303d
00000130: 8ba0 063d e8d9 3fbd 5fa7 70bd 6cc3 e7bc
00000140: 5bd1 5dbd f85f b63b 404b b3bc a1f8 6c3d
00000150: 5300 6abc 9325 6b3d 408a 953d 7eb5 103d
00000160: 3752 363d 4b81 e23c da7d 23bd 6016 27bc
00000170: 8a1c 1fbd 3292 f7bc fe2c d2bb b1c6 0abd
00000180: 6850 2cbd 4c66 273d c3b6 05bd 300b 5d3c
00000190: fa67 3e3d fba9 b0bc fa39 2cbc 2e86 813c
000001a0: 5867 b13c 6ad2 f9bc daec f739 e572 c93c
000001b0: 369c 99bc 7487 c43c 9c72 08bd fa77 423b
000001c0: c9ed 8ebc 2dc0 af3c 44c9 07bd c5db d83c
000001d0: 1711 bd3c b85a e3bc 3004 48bd 6948 413c
000001e0: fc9b dd3c 60cd 063d 5b77 ebbb 782c 27bd
000001f0: 830a 93bc d360 be3c 2b28 d23b 28cc 35bd
00000200: f119 5c3c b3dd 88bd fc25 7dbc 3f28 09bd
00000210: bd04 8fbc 74fb a83c 774e 3b3d e8e4 c0bb
00000220: d04f 39bc 6d11 363d afc6 c9ba 46f7 ac3c
00000230: f308 ffbc d246 2bbd fbca c33c 44c3 35bc
00000240: add2 8a3c 6673 9dbc 7d98 a53b cae2 0f3d
00000250: 594f fcbc 400c fb3c ac8b d8bc 18a3 313d
00000260: e016 013c 0513 4b3d c0e5 d935 2bc9 c0bc
00000270: 4c3f 663d 6730 f63c 9251 ba3c a462 02bd
00000280: 5744 8a3b ef6f c93c 55af c63c 5822 273d
00000290: cf27 dd3c 88dc f63a 653c 263b e9f5 5fbd
000002a0: 4b36 16bc 0512 9f3c 712b fdbc 532d 1a3d
000002b0: 2d9d 28bc 3df2 50bc 990b 3e3d 223b 9dbb
000002c0: 8023 3bbd be07 e23c 5646 97bc ada4 54bd
000002d0: 0834 2fbd d223 69bd 4a71 b9bc 54ae 9e3c
000002e0: 55e3 4dbd c312 7ebc 0618 2b3d 5331 6b3c
000002f0: c22d 903b 53a7 b1bc e47b 9b3c d1e1 be3c
00000300: f83b 203c 7def 453d e938 57bd be31 d23c
00000310: e002 8d3b b3f9 5b3c 1226 50bd f453 0e3d
00000320: a277 50bd e0aa ca3b dcf2 40bd f99c f1bc
00000330: e7e7 68bd 3282 e03c e049 df3c 8636 bbbc
00000340: 1019 6cbb 9c09 a43c 1352 8c3c c927 133d
00000350: 137e 693c e04e 88bc d8ee 523d 692f 283d
00000360: 8ca5 513c 3041 4cbc bb3d b8bc 28a5 403d
00000370: 7c4b e5bc 99ff 4dbd f0be 383d 5094 5c3b
00000380: 39c5 b3bc 2dce 6dbc 65b1 30bd dc86 df3c
00000390: e4fb 66bd abe8 48bd 8219 33bd 1b9d 2fbd
000003a0: 180c f2bc 4970 1fbd 970f 0e3d d17e 4fbd
000003b0: 072a 16bb ebdd 1c3d 35ca 3abd 7603 21bd
000003c0: 5a13 9ebc d2c3 8fbc 3623 03bd 2434 49bd
000003d0: 7f50 37bd d619 1ebd b2ac fc3c 6438 223d
000003e0: 898b 4abc a0dd c33c 52dd 003d 2013 e93c
000003f0: 9d75 c9bc f7f1 efbc 9d3d d5bc 2031 023b

conv2.bias f4 [32]
0.05930021 0.017487044 0.062023766 0.053689424 -0.048000656 -0.06688415 -0.008329174 -0.0068784556
0.026118688 0.010381801 0.035154946 0.09285116 0.050393198 0.059929315 -0.06605095 0.016075082
0.05894501 -0.023515938 0.028257484 0.1044202 0.07770705 0.068554334 0.019391812 0.009659126
0.03974859 -0.017910996 0.07046688 -0.0043009133 -0.05897148 0.14366159 0.103437275 0.019948676
00000000: c7e4 723d fd40 8f3c a20c 7e3d 71e9 5b3d
00000010: 569c 44bd 8ffa 88bd 1677 08bc ab64 e1bb
00000020: dcf6 d53c 6e18 2a3c a2fe 0f3d c028 be3d
00000030: 1969 4e3d 7178 753d b845 87bd e4af 833c
00000040: 5370 713d 7fa4 c0bc 3d7c e73c 42da d53d
00000050: e024 9f3d 3766 8c3d 94db 9e3c 5041 1e3c
00000060: 6bcf 223d 15ba 92bc f150 903d adee 8cbb
00000070: 148c 71bd 061c 133e ecd6 d33d 686b a33c

dense1.weight f4 [128, 1152]
-0.010057648 -0.008114563 0.022369973 0.0018182618 -0.02532749 -0.037764758 -0.008150633 0.03202119
-0.013280736 -0.017927364 0.004826626 -0.006045305 -0.022151906 -0.01820654 -0.015298949 0.042402785
0.015879469 -0.0014571327 0.00084188645 -0.016288266 -0.013016069 -0.026141167 -0.017725246 -0.03298405
0.009201758 0.005525484 7.671714e-05 -0.012676467 0.023141617 0.008656422 -0.0024787611 -0.00027366553
0.02430456 -0.0077472315 0.0066498155 0.014693457 0.021979127 0.023700185 0.013126732 -0.001982917
-0.016002106 -0.0123263635 -0.015771259 -0.0028827225 -0.020555312 -0.037312657 0.001473675 0.034450226
-0.038201235 -0.0037891855 0.009587311 -0.038634904 -0.01536799 -0.0084674 -0.020642808 -0.016715571
-0.01598515 -0.016834546 -0.006809029 -0.031440657 -0.012232828 -0.013364981 -0.021192934 -0.018940093
2.8469512e-06 -0.03208881 -0.01896451 -0.008373249 -0.0036691169 -0.014686564 -0.037305105 -0.02631103
0.036471944 -0.012366955 -0.008078724 -0.009585603 -0.017872024 -0.00085072615 -0.039737195 0.00020989121
-0.03421327 -0.012175958 -0.026174016 0.005824113 -0.018459614 -0.02258958 0.012944141 -0.040286817
0.011295069 -0.02814063 0.018829886 -0.005967965 0.010613205 -0.0017931949 -0.0093710795 -0.03397373
-0.03342227 0.021914264 -0.030557783 -0.030211713 0.00061479217 -0.0051001944 -0.0015397711 -0.042014588
0.0118762525 0.030681372 -0.021917382 -0.002658733 0.0017057069 0.003304836 -0.0146054365 -0.011115884
-0.008153089 -0.02458623 0.017826432 -0.024303352 -0.0190409 -0.021553233 -0.026460929 -0.013803454
-0.033861212 0.013149396 -0.004541882 0.014346264 0.01643439 0.0028053785 0.006844794 -0.0016541824
0.023831444 0.014852696 0.03824513 -0.0015130116 0.030456407 -0.034648504 0.032330498 0.034107625
0.046128698 -0.005941943 0.039769918 0.0014388007 -0.0064118025 0.01611591 0.017162303 0.029697087
-0.013609611 -0.026903773 -0.009965913 -0.002093512 -0.008190933 0.010436817 0.0015653147 -0.0015365105
0.012431714 -0.007077464 -0.024198707 -0.02490686 0.016704958 -0.025324553 -0.021149332 -0.012096911
-0.006412696 0.0014077816 0.004081496 -0.019534614 -0.0037311802 0.017122377 0.017867455 -0.012873401
-0.020316742 -0.010450857 0.012483392 -0.026374046 -0.02052999 0.0143878255 0.022999998 -0.016576944
0.008293364 0.006011603 -0.0079452945 0.033843692 0.015487239 0.024192749 0.008779281 -0.0021728736
0.019580761 0.030597407 -0.00139258 -0.0033556484 0.01160508 0.017953886 0.0072891866 -0.009489817
0.023848305 -0.019954756 0.00988861 0.022136245 0.021397661 -0.012657911 0.013853421 0.008955639
0.026141746 -0.0116643645 0.00092454336 0.020072496 -0.00968249 0.016218616 -0.009069946 0.009736254
0.008006061 0.011885469 0.010892181 0.010952146 0.00855681 -0.01598356 -0.009365714 0.0005379666
-0.01780749 0.022794731 -0.01275699 0.022714153 -0.007739805 0.03488932 0.012532008 -0.0143360235
0.026438178 0.03554948 -0.02499328 -0.007817047 0.039685123 -0.026072271 0.015777053 0.010031364
-0.013948422 -0.03149775 0.009884548 -0.01575222 -0.005283944 -0.014679764 0.020314628 -0.02767276
0.007815926 -0.025268292 -0.0053192494 -0.017408464 0.002465999 -0.014483841 0.00028986318 0.015685271
-0.02779427 -0.022990007 0.017868495 0.013832832 0.017930673 0.027059956 0.012839313 -0.021559829
00000000: d5c8 24bc f2f2 04bc 3c41 b73c be52 ee3a
00000010: 997b cfbc 38af 1abd 3c8a 05bc a728 033d
00000020: 7297 59bc 68dc 92bc ac28 9e3b b217 c6bb
00000030: ea77 b5bc e225 95bc 71a8 7abc 8bae 2d3d
00000040: a915 823c 43fd beba 0bb2 5c3a f86e 85bc
00000050: 5a41 55bc 0026 d6bc 8934 91bc 491a 07bd
00000060: f8c2 163c 1f0f b53b 33e3 a038 f5b0 4fbc
00000070: 7d93 bd3c aad3 0d3c b672 22bb c47a 8fb9
00000080: 5b1a c73c 7ddc fdbb b2e6 d93b d3bc 703c
00000090: 920d b43c e426 c23c 8111 573c d4f3 01bb
000000a0: d916 83bc 84f4 49bc ba32 81bc 0fec 3cbb
000000b0: 9d63 a8bc 28d5 18bd 5428 c13a ae1b 0d3d
000000c0: e678 1cbd fc53 78bb 1914 1d3c a23f 1ebd
000000d0: 06ca 7bbc daba 0abc 1b1b a9bc 18ef 88bc
000000e0: 4af3 82bc 9ae8 89bc 461e dfbb ebc7 00bd
000000f0: 336c 48bc cbf8 5abc ce9c adbc 4128 9bbc
00000100: 400e 3f36 8e6f 03bd 765b 9bbc f42f 09bc
00000110: 9175 70bb ea9f 70bc 3dcd 18bd 3b8a d7bc
00000120: 9b63 153d c59e 4abc a05c 04bc ef0c 1dbc
00000130: 5a68 92bc 4403 5fba 78c3 22bd 3e16 5c39
00000140: 3723 0cbd ab7d 47bc e46a d6bc 33d8 be3b
00000150: 9e38 97bc c80d b9bc aa13 543c ca03 25bd
00000160: f40e 393c 2e87 e6bc 2241 9a3c eb8e c3bb
00000170: 02e3 2d3c a309 ebba 2889 19bc 0a28 0bbd
00000180: cae5 08bd 8b85 b33c 5154 fabc 8e7e f7bc
00000190: 012a 213a 881f a7bb 25d2 c9ba 7d17 2cbd
000001a0: 9d94 423c 8057 fb3c 158c b3bc 233e 2ebb
000001b0: 0792 df3a f395 583b a44b 6fbc 661f 36bc
000001c0: 8994 05bc 1069 c9bc bd08 923c d317 c7bc
000001d0: a9fb 9bbc 6890 b0bc 97c4 d8bc e227 62bc
000001e0: 0eb2 0abd 9070 573c 11d4 94bb 980c 6b3c
000001f0: 6aa1 863c 71da 373b 4b4a e03b 27d1 d8ba
00000200: 293a c33c b958 733c eda6 1c3d 3f50 c6ba
00000210: b77f f93c 97eb 0dbd fc6c 043d 70b4 0b3d
00000220: 72f1 3c3d a1b4 c2bb c8e5 223d 2496 bc3a
00000230: 191a d2bb 8305 843c f597 8c3c 4e47 f33c
00000240: d9fa 5ebc 4d65 dcbc 1248 23bc 4e33 09bb
00000250: 4333 06bc 2fff 2a3c 3f2b cd3a bd64 c9ba
00000260: 63ae 4b3c 12ea e7bb 5e3c c6bc 7909 ccbc
00000270: d6d8 883c 7075 cfbc 5d41 adbc 1f32 46bc
00000280: 9821 d2bb 5085 b83a 12be 853b 0e07 a0bc
00000290: d186 74bb 3a44 8c3c c55e 923c f5ea 52bc
000002a0: 4c6f a6bc 123a 2bbc 2487 4c3c 620e d8bc
000002b0: 822e a8bc eaba 6b3c 7e6a bc3c 5fcc 87bc
000002c0: e4e0 073c fbfc c43b fb2c 02bc af9f 0a3d
000002d0: 30be 7d3c df2f c63c f9d6 0f3c c566 0ebb
000002e0: d567 a03c 6aa7 fa3c 3b87 b6ba 70ea 5bbb
000002f0: 3c23 3e3c 0714 933c 21da ee3b 2d7b 1bbc
00000300: 855d c33c 2878 a3bc d603 223c 1257 b53c
00000310: 264a af3c 2063 4fbc 76f9 623c acba 123c
00000320: 3727 d63c e41b 3fbc 0e5d 723a 136f a43c
00000330: 4ea3 1ebc e7dc 843c 1c9a 14bc cf84 1f3c
00000340: db2b 033c 45bb 423c 1e75 323c a170 333c
00000350: dd31 0c3c f4ef 82bc a772 19bc 5406 0d3a
00000360: 03e1 91bc 04bc ba3c b202 51bc 0813 ba3c
00000370: 319e fdbb 1be8 0e3d 0d53 4d3c a4e1 6abc
00000380: e194 d83c 559c 113d b5be ccbc 1213 00bc
00000390: de8c 223d 8495 d5bc e13e 813c 975a 243c
000003a0: ec87 64bc c903 01bd cdf2 213c cd0a 81bc
000003b0: ef24 adbb 6583 70bc dd6a a63c fcb1 e2bc
000003c0: 5f0e 003c 73ff cebc 194d aebb 329c 8ebc
000003d0: 999c 213b a24d 6dbc c7f8 9739 667e 803c
000003e0: cfb0 e3bc 8a55 bcbc f360 923c 1aa3 623c
000003f0: 59e3 923c d7ac dd3c fb5b 523c 3d9e b0bc

dense1.bias f4 [128]
-0.11435431 0.11667863 -0.05745844 0.08265445 -0.015934817 0.048863173 0.00393119 -0.014610109
0.09028154 -0.019079534 -0.07037572 0.0021308744 0.07838511 0.026074888 -0.008377898 0.005273055
-0.0002166544 -0.0008299748 -0.0027890562 0.07175926 0.043806486 0.041761354 -0.017467301 -0.03153908
0.08866864 -0.03734446 -0.0016690197 0.08025906 0.10938513 0.012973501 -0.08141923 -0.09053731
0.052228544 -0.08651721 -0.06860161 0.06770593 -0.025439557 -0.03379685 0.026784277 0.0029173675
0.016852273 0.017518599 0.003164873 -0.0016455232 0.021687098 -0.0064470368 -0.018863084 0.012632333
-0.035330277 -0.08269169 -0.0029331464 -0.0102443015 -0.027071374 -0.0716608 0.027874723 0.1177442
0.06337956 -0.07407457 0.023309048 0.071467765 -0.07629685 0.09353219 -0.07834501 0.11797361
-0.035015076 0.09605581 -0.069928505 -0.08780607 -0.03544148 -0.032868706 -0.022721665 -0.06489227
-0.1069434 -0.050299544 0.07593271 -0.070753574 0.01673251 -0.021071708 0.00219643 -0.0002350832
0.061829694 0.017895589 0.092890404 -0.04641403 -0.017856095 0.00679829 0.057652153 0.11559397
0.06803399 -0.0025411358 -0.050446607 0.007657883 -0.025411282 -0.08182972 -0.08926093 0.06579482
0.036209546 -0.041270737 -0.017601993 -0.051439032 0.037445314 -0.08142821 0.048960015 -0.013339641
0.028621227 0.049982883 -0.009976693 -0.052963115 -0.08271014 -0.086802326 0.030619405 0.018034011
0.018599687 0.029116012 0.09061694 0.012773118 -0.045278277 0.04041233 0.0023018897 -0.057818845
-0.07095125 -0.02290709 0.033261083 -0.110381775 0.0723031 0.06492043 0.068895265 0.023805598
00000000: 9832 eabd 35f5 ee3d 8b59 6bbd bc46 a93d
00000010: bc89 82bc c024 483d 36d1 803b 3d5f 6fbc
00000020: 87e5 b83d af4c 9cbc 2521 90bd 24a6 0b3b
00000030: 5f88 a03d 019b d53c 7343 09bc 97c9 ac3b
00000040: b92d 63b9 aa92 59ba 99c8 36bb 85f6 923d
00000050: 6e6e 333d f40d 2b3d 9617 8fbc 1f2f 01bd
00000060: e797 b53d 81f6 18bd 02c3 daba dd5e a43d
00000070: 5005 e03d cf8e 543c 20bf a6bd a06b b9bd
00000080: 99ed 553d ef2f b1bd 007f 8cbd 68a9 8a3d
00000090: 9e66 d0bc 916e 0abd b36a db3c 4e31 3f3b
000000a0: c70d 8a3c 2a83 8f3c c269 4f3b 99ae d7ba
000000b0: 24a9 b13c aa41 d3bb c186 9abc d8f7 4e3c
000000c0: 7bb6 10bd 435a a9bd 083a 40bb b7d7 27bc
000000d0: c9c4 ddbc e6c2 92bd 8859 e43c df23 f13d
000000e0: 25cd 813d 68b4 97bd 9ef2 be3c b15d 923d
000000f0: 8641 9cbd ce8d bf3d 5973 a0bd 269c f13d
00000100: f86b 0fbd e9b8 c43d ad36 8fbd abd3 b3bd
00000110: 162b 11bd 56a1 06bd c922 babc 3de6 84bd
00000120: 2405 dbbd e506 4ebd 9c82 9b3d 40e7 90bd
00000130: 9e12 893c 939e acbc fbf1 0f3b aa80 76b9
00000140: 2241 7d3d c599 923c 533d be3d a31c 3ebd
00000150: f246 92bc 31c4 de3b aa24 6c3d 88bc ec3d
00000160: 6855 8b3d 2f89 26bb 1aa1 4ebd fbee fa3b
00000170: 522b d0bc 5796 a7bd 6fce b6bd 6fbf 863d
00000180: 7650 143d 810b 29bd 0e32 90bc bcb1 52bd
00000190: 4260 193d d5c3 a6bd 4c8a 483d 828e 5abc
000001a0: 1077 ea3c daba 4c3d 4975 23bc daef 58bd
000001b0: ef63 a9bd 6bc5 b1bd 8cd5 fa3c 10bc 933c
000001c0: 5f5e 983c b484 ee3c 6095 b93d 5746 513c
000001d0: b775 39bd 6687 253d 4ddb 163b 74d3 6cbd
000001e0: e44e 91bd a6a7 bbbc c63c 083d d70f e2bd
000001f0: a613 943d 01f5 843d f618 8d3d f503 c33c

dense_out.weight f4 [6, 128]
0.008519498 0.04287205 -0.019283205 0.013084183 0.04505852 0.05484978 0.03210961 0.016872419
-0.006084189 0.03724896 -0.030323604 -0.031629305 0.0118539315 0.04881797 -0.054763664 0.039035153
0.042187773 -0.008941438 -0.07489628 0.045900557 0.007112877 0.03670845 -0.0674893 0.0069829696
0.007123871 0.0017891235 -0.034920733 0.028075477 0.014719397 0.02022401 0.035297748 -0.06565873
-0.025079483 0.01244007 0.039893173 0.01749647 0.017626 0.00967303 0.024983715 0.03855759
0.022211032 -0.015411021 -0.028513143 -0.05750045 0.0033144034 -0.016617352 -0.0073413393 -0.024360612
0.03490552 0.033927023 -0.008624113 0.0133170495 0.0134893255 -0.035056647 -0.034262907 0.01868307
-0.0032393306 -0.002571038 -0.018594805 0.009853953 -0.035846256 0.048873328 -0.033346765 0.0072718933
-0.014421341 -0.03408668 -0.022186538 -0.043248303 0.061884604 0.015399692 0.026244542 -0.036706507
-0.048084598 0.017507251 -0.0068487083 0.022645567 0.018198295 -0.01892109 0.03812977 -0.022310548
0.009983129 0.031361748 -0.0019525347 0.01755796 -0.00420161 0.015096963 0.015607734 0.004564791
-0.027785148 0.018225001 -0.014994053 0.0058157765 -0.055362448 0.004481066 0.014597963 -0.061098583
0.042740222 0.039353188 -0.00028632063 -0.020547658 -0.010059524 0.023022382 -0.027503535 0.028897671
-0.055046123 0.018873451 -0.011818455 0.004470369 -0.036585417 -0.012057523 -0.023241494 0.023804316
0.017266268 -0.06335246 -0.0032208303 0.025155548 0.06697469 0.005647509 -0.025562981 -0.016194185
-0.024706865 0.007868247 0.01902744 -0.03730382 0.04588888 -0.0005184205 -0.0322701 0.029622275
0.02342294 0.015982876 0.038660206 0.010211746 0.042582884 0.017472208 -0.049265936 0.036487497
0.046432376 0.001393006 -0.04395302 -0.02044072 0.022764495 -0.022059688 -0.006375197 -0.019229088
0.006013383 0.05465257 -0.06785284 0.010322463 -0.03969553 0.012523576 -0.03372534 0.049845137
0.015384655 -0.0574058 0.033462446 0.0047488585 0.041227855 -0.03969775 -0.022427611 -0.06370361
0.022799997 -0.017492373 -0.015324707 -0.02398055 -0.008345524 -0.02392004 0.03759246 -0.003279747
-0.044005524 -0.037882544 0.037913695 -0.039692115 0.04591901 0.013525603 -0.01431345 -0.0017681853
0.066881806 -0.0049430863 -0.014065587 -0.0073253834 0.021070266 -0.035686653 0.026569352 -0.0016115515
0.01442077 -0.009897896 -0.020666858 -0.019118425 -0.06015002 0.035503753 -0.013174186 0.057840277
0.025124526 0.0215879 -0.029716097 -0.021309778 0.0041708415 -0.024393069 -0.027121115 -0.024488375
-0.042124853 -0.024666248 -0.0059230495 -0.0033454134 -0.012413529 -0.037434146 -0.04505871 0.02368019
0.004057916 -0.026724832 0.010007567 -0.062248416 0.04110604 0.010414335 0.040134657 0.016920708
0.053719644 0.04207793 -0.0408135 0.058551554 -0.047937144 -0.010721702 -0.01348766 -0.04441316
0.045767818 -0.006870111 0.0061651613 0.0014826606 0.049787294 0.01648702 0.014901992 0.028378569
-0.029178748 0.049959783 0.018666634 0.057727844 -0.0396076 -0.04764538 0.008671512 -0.001502604
-0.019850593 -0.01682785 0.028450562 -0.011851414 0.05550188 0.047550246 -0.035729207 -0.009471215
-0.038722765 -0.03160912 -0.020319227 -0.0398319 0.0153196035 0.027467899 -0.033144098 0.026407043
00000000: 5d95 0b3c 9a9a 2f3d d0f7 9dbc 0b5f 563c
00000010: 488f 383d 2aaa 603d 5e85 033d 0738 8a3c
00000020: e05d c7bb 5e92 183d 3569 f8bc bb8d 01bd
00000030: fe36 423c 5af5 473d dd4f 60bd 53e3 1f3d
00000040: 16cd 2c3d 1c7f 12bc 3963 99bd 3902 3c3d
00000050: 2313 e93b 9a5b 163d d537 8abd 65d1 e43b
00000060: 5c6f e93b 0681 ea3a 0b09 0fbd 8bfe e53c
00000070: a029 713c d3ac a53c 5f94 103d 1678 86bd
00000080: 7d73 cdbc 6fd1 4b3c 0667 233d c254 8f3c
00000090: 6764 903c a17b 1e3c a6aa cc3c 90ee 1d3d
000000a0: e9f3 b53c 827e 7cbc 6594 e9bc 9885 6bbd
000000b0: 7636 593b 1d21 88bc 9e8f f0bb e88f c7bc
000000c0: 17f9 0e3d 10f7 0a3d 274c 0dbc c12f 5a3c
000000d0: 5502 5d3c 8f97 0fbd 4357 0cbd 3d0d 993c
000000e0: f34a 54bb dc7e 28bb 2254 98bc 7972 213c
000000f0: 86d3 12bd 662f 483d 9e96 08bd 1049 ee3b
00000100: 7d47 6cbc 799e 0bbd 8bc0 b5bc 2225 31bd
00000110: b67a 7d3d fd4e 7c3c cbfe d63c 9059 16bd
00000120: 5bf4 44bd 5e6b 8f3c 216b e0bb 3283 b93c
00000130: 9714 953c 6700 9bbc f62d 1c3d 9cc4 b6bc
00000140: 4790 233c 2d75 003d 31ec ffba b6d5 8f3c
00000150: a9ad 89bb 4159 773c 95b7 7f3c 3e94 953b
00000160: ae9d e3bc 994c 953c 9ea9 75bc 4592 be3b
00000170: bcc3 62bd e8d5 923b 4b2c 6f3c 8242 7abd
00000180: 5f10 2f3d cf30 213d 4e1d 96b9 9053 a8bc
00000190: b4d0 24bc 6f99 bc3c 184f e1bc cfba ec3c
000001a0: 0b78 61bd 7f9c 9a3c 31a2 41bc 2c7c 923b
000001b0: 97da 15bd eb8c 45bc f264 bebc 4501 c33c
000001c0: fd71 8d3c efbe 81bd 9114 53bb 0213 ce3c
000001d0: 072a 893d bd0e b93b 7569 d1bc aba9 84bc
000001e0: 0d66 cabc d2e9 003c 6fdf 9b3c e4cb 18bd
000001f0: faf5 3b3d 9ce6 07ba a72d 04bd 6aaa f23c
00000200: 77e1 bf3c 85ee 823c 2a5a 1e3d 2b4f 273c
00000210: 646b 2e3d e021 8f3c 14cb 49bd ea73 153d
00000220: e02f 3e3d 8695 b63a 1508 34bd 4c73 a7bc
00000230: 9b7c ba3c 85b6 b4bc 07e7 d0bb 5286 9dbc
00000240: ea0b c53b 60db 5f3d 6ef6 8abd 8c1f 293c
00000250: c897 22bd af2f 4d3c 9523 0abd 6a2a 4c3d
00000260: ec0f 7c3c 5822 6bbd eb0f 093d 509c 9b3b
00000270: 8ade 283d 1c9a 22bd 1cba b7bc 0a77 82bd
00000280: 0fc7 ba3c 2a4c 8fbc 7b14 7bbc dc72 c4bc
00000290: aabb 08bc f6f3 c3bc 8dfa 193d 06f1 56bb
000002a0: 233f 34bd ba2a 1bbd 644b 1b3d 3394 22bd
000002b0: 9215 3c3d 7e9a 5d3c f682 6abc 74c2 e7ba
000002c0: 54f9 883d 9df9 a1bb 5973 66bc c509 f0bb
000002d0: 8d9b ac3c 2b2c 12bd f8a7 d93c b23a d3ba
000002e0: 1845 6c3c c92a 22bc 8b4d a9bc 3e9e 9cbc
000002f0: de5f 76bd 626c 113d 8bd8 57bc ede9 6c3d
00000300: f3d1 cd3c 1cd9 b03c 2c6f f3bc d891 aebc
00000310: 8eab 883b f9d3 c7bc 1a2d debc d89b c8bc
00000320: 1c8b 2cbd df10 cabc 2416 c2bb b93e 5bbb
00000330: 1d62 4bbc 8c54 19bd 7b8f 38bd f5fc c13c
00000340: 44f8 843b 09ee dabc c7f6 233c 32f8 7ebd
00000350: cf5e 283d e3a0 2a3c 3d64 243d 4c9d 8a3c
00000360: 2109 5c3d e859 2c3d 0e2c 27bd c1d3 6f3d
00000370: bd59 44bd 14aa 2fbc 59fb 5cbc 93ea 35bd
00000380: 0977 3b3d ab1e e1bb 1f05 ca3b d655 c23a
00000390: c3ed 4b3d c90f 873c 7c27 743c 2c7a e83c
000003a0: 4508 efbc a1a2 4c3d c5ea 983c 0874 6c3d
000003b0: 943b 22bd cd27 43bd f512 0e3c 06f3 c4ba
000003c0: b69d a2bc 8fda 89bc 2711 e93c 6f2c 42bc
000003d0: f055 633d 0cc4 423d ca58 12bd 282d 1bbc
000003e0: c39b 1ebd 9178 01bd 8274 a6bc c626 23bd
000003f0: 13ff 7a3c 5c04 e13c 1bc2 07bd 9553 d83c

dense_out.bias f4 [6]
0.08722138 0.18031101 -0.06826783 -0.03221995 0.08233819 0.01562514
00000000: 1fa1 b23d 73a3 383e 01d0 8bbd 11f9 03bd
00000010: eda0 a83d 4b00 803c
